data.pth (torch, 4991 bytes, 6 tensors)

l1.weight f4 [8, 54]
000000 38 ff 1e 3f 42 0a 34 3e c3 45 7f be 80 45 34 3e
       0.6210818 0.17582038 -0.24928956 0.17604637
000010 c1 69 e6 3d b7 64 05 bf 28 2b a2 be 8b ba c3 be
       0.1125064 -0.52106804 -0.3167355 -0.38228258
000020 25 67 ca be 9d 63 93 be 0c 5c 05 3f a4 9e 0f 3f
       -0.39531818 -0.28786936 0.5209358 0.5610144
000030 96 b1 93 be bb 79 a3 3e 58 3b 21 be 1a 63 dc 3e
       -0.28846425 0.3192881 -0.15745294 0.43044358
000040 88 a9 26 3f df 6f ea be 2b 47 fa bc 95 3e 30 3f
       0.65102434 -0.45788476 -0.030551514 0.6884549
000050 20 a8 07 3f 70 8c 38 3f cf f7 ab 3e dc cf 2a 3f
       0.52990913 0.7208929 0.335875 0.6672342
000060 b6 80 68 3e 9c 69 4d 3e 69 00 cb bd e7 8c b3 be
       0.2270535 0.20059818 -0.099121876 -0.35068437
000070 b2 51 47 be 2a fc 8f be 7c 53 6d be dd c1 eb 3e
       -0.19464758 -0.28122073 -0.23176378 0.46046343
000080 ab 6c fc 3e 36 ca a7 be b9 78 80 be 35 b4 01 3f
       0.49301657 -0.32771462 -0.25092104 0.506656
000090 00 7b 93 be 47 ba eb be 4a 5e 99 be 89 b2 86 be
       -0.2880478 -0.46040556 -0.2995475 -0.26308087
0000a0 bd 53 ba be ec a0 97 3c fc cf ac 3e 27 9e 71 be
       -0.36392012 0.01850935 0.3375243 -0.23595487
0000b0 00 8a be 3d 07 3a 04 be 73 89 76 3f d5 c4 01 3f
       0.09303665 -0.1291276 0.9630348 0.50690967
0000c0 26 a2 45 3e d3 83 fd 3a d4 76 c0 3e a6 a9 50 3e
       0.19300136 0.0019341655 0.3759066 0.20377216
0000d0 1f 19 f8 bd d6 3a bd 3d 01 77 24 be 26 85 37 3f
       -0.121141665 0.09239738 -0.16061021 0.71687543
0000e0 6c e4 fb 3c 3c 01 7b 3c 58 ad 92 3e a3 d9 21 3f
       0.030748568 0.0153201185 0.28647876 0.6322271
0000f0 c0 63 63 3d 6e b0 19 bd 93 80 ed 3c 55 38 ee 38
       0.05551505 -0.037521772 0.028991973 0.00011359217
000100 cf 3c 13 3e f4 f5 a9 be b8 98 3b 3f b6 af 8e 3c
       0.14378665 -0.3319546 0.73279905 0.01741777
000110 ab 6c 15 3f d9 00 24 be 2a 77 5b 3e e9 44 2b 3f
       0.5836894 -0.16015948 0.21432176 0.66902024
000120 37 1c 5e 3e f9 fa 17 3e 9b 64 0e be 97 0b 4b 3c
       0.2169045 0.14841832 -0.13905565 0.0123929
000130 12 8e 8f ba 30 59 87 be 7a 46 7a be 45 3c 16 be
       -0.0010952374 -0.26435232 -0.24440947 -0.14671429
000140 87 c7 04 3f dd 9f 49 3f b1 d3 df 3e 4b 0b cb 3e
       0.51866955 0.78759557 0.43716195 0.39657053
000150 77 db 11 3f 7c 6e 1c be 39 46 7c be 2d 72 0d 3e
       0.569755 -0.15276521 -0.24636163 0.13813086
000160 da 1d 3c 3f 6a 8f 84 be 2b 8a bc 3e 79 a4 2a 3e
       0.7348305 -0.25890666 0.36824164 0.16664304
000170 f5 b4 bb bd 2f aa 21 be 4c 9d 0d 3f bc 0a 1e 3f
       -0.09165374 -0.15787576 0.5531814 0.6173513
000180 c0 c1 05 be ba 5d 0b 3f 61 e2 6a bc b8 d7 28 3f
       -0.13062191 0.5443989 -0.0143361995 0.6595416
000190 74 ab 1e bf 78 b8 73 be 78 f5 a1 3e 9f d7 34 3f
       -0.61980367 -0.23800838 0.3163259 0.7064151
0001a0 3c 5e 90 be 9a b1 db 3e 44 07 f6 bd f0 c9 52 3e
       -0.28196895 0.42908937 -0.120131046 0.20584846
0001b0 a0 92 b4 bc 93 4d aa be 7e 55 19 3f 69 68 f4 3e
       -0.022042572 -0.3326231 0.59896076 0.4773591
0001c0 1b 16 21 3f 25 e6 0f bf 9b e0 fe 3e 24 88 a8 3e
       0.62924355 -0.5621055 0.49780735 0.32916367
0001d0 0a 9f 12 3f 8c a1 af 3e 8c b0 94 3e 31 cd b0 be
       0.57273924 0.34302938 0.29040945 -0.3453155
0001e0 23 fd 0a 3f 27 e8 b4 be e7 7c e4 bd df d7 50 be
       0.54292506 -0.35333368 -0.11156636 -0.20394848
0001f0 8f c5 9d 3e 77 43 12 bf 4e 8b cf 3e fd 50 36 3f
       0.30814788 -0.57134193 0.4053597 0.7121733
000200 67 66 8b 3d a1 a2 41 3f 89 1d 4e 3f 97 c4 a6 3e
       0.06806641 0.75638777 0.8051382 0.3257186
000210 32 37 3f be da b0 0c 3f 7a 6c 10 3f d4 27 0c bf
       -0.18673399 0.54957354 0.5641552 -0.5474827
000220 0a 52 b7 3e f9 59 b5 be 7e 67 99 be 77 40 a3 be
       0.35804778 -0.35420206 -0.2996177 -0.3188512
000230 d9 09 cb 3c e7 15 ed 3e 90 f5 e6 bd d5 c6 0f be
       0.02478497 0.46305773 -0.11277306 -0.14040692
000240 db 15 bb 3e 0a ee e4 3e 55 dc ca 3e 3f 88 db 3e
       0.36540112 0.4471286 0.39621225 0.42877385
000250 77 ae af be aa fe 0d 3f 29 b5 a4 be 23 7d 12 be
       -0.34312794 0.5546671 -0.32169464 -0.14305548
000260 3c 2d 62 3d fe bb 6f 3d b6 ca 0b bf 73 48 62 3e
       0.05521892 0.058528893 -0.5460619 0.2209795
000270 85 84 14 3f b4 b7 ec 3e 7c 15 9e be a8 36 c8 3e
       0.5801471 0.46233904 -0.30875766 0.391042
000280 39 f7 be 3e c2 02 90 3e 9a 4f 76 3e 3d d2 06 be
       0.3729799 0.28127104 0.24053803 -0.13166137
000290 9b b0 bb be 55 09 ae 3e 05 cf 9d 3e a8 a4 23 bf
       -0.36658177 0.33991495 0.30822006 -0.6392312
0002a0 5c b9 85 be 9e ce a3 be ed d6 d9 be 57 61 c1 be
       -0.2611798 -0.31993574 -0.42546788 -0.37769577
0002b0 de b1 10 3f 79 45 bc 3e cb 88 47 3e 38 70 08 3f
       0.56521404 0.36771753 0.19485776 0.5329623
0002c0 eb ba 61 be dc 34 90 3e 18 92 ff 3e 7c 9e 23 bf
       -0.2204396 0.28165329 0.49916148 -0.639137
0002d0 6b 7a 9e 3e 4c 47 16 3f d9 d0 f6 3b 52 e5 10 3f
       0.30952772 0.5870254 0.007532221 0.56599915
0002e0 04 02 1a 3f 10 d9 3f 3f f9 a7 a5 3e cb 71 ab 3e
       0.60159326 0.74940586 0.32354715 0.33485255
0002f0 5f f9 ce 3e e1 13 ff be 0a 43 92 3e 88 9f 9a be
       0.4042463 -0.49819854 0.28566772 -0.30199838
000300 e3 16 a9 be d7 ee b4 3e 27 55 b7 3e ff 6c 97 be
       -0.33025274 0.3533847 0.35807154 -0.29575345
000310 69 cd bb bd 5e b5 b3 3e ce fe b2 3e 9d 61 d9 be
       -0.09170038 0.3509931 0.34960026 -0.42457286
000320 a7 bf 25 be 25 85 a8 be 30 da c0 be 2a 86 07 3f
       -0.16186391 -0.3291408 -0.37666464 0.52939093
000330 cb d0 04 3f c7 65 4d be 1c 7e c5 3d 74 a9 01 be
       0.5188109 -0.20058356 0.09643194 -0.12662297
000340 85 a4 fe 3e 27 68 52 3e 6d 64 00 3f fa 74 d7 3e
       0.49734893 0.20547543 0.5015324 0.42081434
000350 56 f2 e7 3e f4 ca c5 3e 0d c3 57 be 6e ee c7 3d
       0.45302075 0.38631403 -0.210705 0.09762274
000360 ec b9 08 be 18 d9 1c 3f e0 be 1b 3f 0e d1 15 be
       -0.13352174 0.6126876 0.6083813 -0.1463053
000370 47 3f 02 3f 01 80 52 be 02 29 c3 3e f3 4f 0e 3f
       0.50877804 -0.20556642 0.38117224 0.5559074
000380 77 c3 1b 3f 99 9c 02 3f 1f 53 12 3e d3 93 fb 3d
       0.6084513 0.510202 0.1428952 0.122840546
000390 6e 19 1f 3f 6e f8 2b 3f ce c8 19 3f c5 bb 05 3e
       0.6214818 0.6717595 0.6007203 0.1305991
0003a0 dd 67 5a 3e c0 48 e9 bd 89 25 c9 3e 70 a9 12 3e
       0.21328683 -0.11390829 0.3928645 0.14322448
0003b0 06 43 ca bd 74 a5 3c 3e c6 ae bb bd 36 3c ba be
       -0.09876065 0.1842249 -0.09164195 -0.36374062
0003c0 6b 64 db 3e c4 a4 43 be 23 92 23 3f 84 70 25 3f
       0.4285005 -0.19105822 0.6389486 0.6462481
0003d0 60 7b e3 3e bf 94 5c 3e 99 e5 57 be ec 35 1f 3f
       0.44430065 0.21541117 -0.21083678 0.62191653
0003e0 3c f0 45 be 62 ee 26 3f 76 e5 36 3f c2 8b 65 3d
       -0.19329923 0.65207493 0.7144388 0.056041487
0003f0 70 8d d3 3e c7 78 09 3f 78 e3 0f 3f 9f 8c bc 3e
       0.41318846 0.53699917 0.56206465 0.36826035

l1.bias f4 [8]
000000 f9 00 46 3f 2c 6a 0b 3f 8f 63 24 3f e7 ad 23 3f
       0.77345234 0.5445888 0.64214414 0.6393723
000010 d0 bb e5 3e e4 d7 21 3f ba 01 94 3f c7 d8 03 3f
       0.44869852 0.6322005 1.1563027 0.5150265

l2.weight f4 [8, 8]
000000 9b 86 ba 3f f3 20 98 be 72 ca 0a 3f 95 02 7b 3f
       1.4572328 -0.29712638 0.5421516 0.98050815
000010 07 65 3e bf f5 d0 75 3f 18 94 ba 3f eb f4 0d bf
       -0.74372905 0.9602197 1.4576445 -0.5545184
000020 ba 6c 27 bd f4 3d 36 be 9f ca ac be ef 46 c2 be
       -0.040875174 -0.1779707 -0.33748338 -0.37944743
000030 68 6a 8d 3d 05 91 11 be b9 ff 93 3e 2f 3e 03 be
       0.06905061 -0.14215477 0.28906038 -0.1281669
000040 af 1c 3e be 69 ee 0e 3f 56 65 ba 3f 65 82 6a 3f
       -0.1856563 0.55832535 1.4562175 0.91605216
000050 66 90 83 3f ca 20 6a bf 36 22 8d be a5 ff d0 be
       1.0278442 -0.9145628 -0.27565163 -0.4082004
000060 7b b4 41 bf c5 14 89 3f c4 63 92 be 7e 53 8e bf
       -0.75666016 1.0709463 -0.2859174 -1.111923
000070 21 d6 3b 3f 26 a0 14 3f 28 96 79 3f 85 14 99 3f
       0.7337361 0.5805687 0.97494745 1.1959387
000080 96 9e cb 3e 71 4c 68 3f 24 09 8b 3f 2e c1 8b 3f
       0.3976943 0.9074164 1.0862164 1.0918329
000090 13 2b 25 3f a9 cf 83 bf 63 dc 07 bf c7 f1 71 3f
       0.6451885 -1.0297748 -0.5307066 0.9450955
0000a0 a6 70 35 bf 81 ea 22 be d1 58 b6 3e c7 ee 65 be
       -0.7087501 -0.15909769 0.35614637 -0.22454368
0000b0 ba 20 78 3f 2c 2a 15 3f 5a 79 a3 3d 4d a7 66 bf
       0.96924937 0.58267474 0.0798213 -0.9009903
0000c0 76 ad b0 be f9 db 5e be d5 0e 19 be 05 8f 1a 3d
       -0.3450734 -0.217636 -0.14947064 0.03773405
0000d0 97 ee d3 3d 90 cf 83 3e 71 2b 24 bd 1b 81 9a be
       0.10348242 0.25744295 -0.04008049 -0.30176625
0000e0 29 95 ff 3e 20 bc 11 bf a5 a4 0b bf 6d 31 48 3f
       0.49918488 -0.5692768 -0.545481 0.7820042
0000f0 b7 7f 2f 3f 16 79 6e 3f e0 9f 8b bf 3f 62 99 bf
       0.6855425 0.9315351 -1.0908165 -1.1983107

l2.bias f4 [8]
000000 90 bf 80 3f be f1 94 be ba a1 03 3f 32 07 0f 3f
       1.005846 -0.29090685 0.5141865 0.55870354
000010 b5 2f 1a be 5c 87 91 3e 68 ad 84 be b7 4e 7d 3c
       -0.15057261 0.28423584 -0.25913548 0.015460662

l3.weight f4 [7, 8]
000000 25 24 03 3e e0 38 52 3e 3d 90 fc be a2 e6 75 bf
       0.12806757 0.20529509 -0.49328795 -0.9605504
000010 7d 17 6a bf 24 6f a7 3d f8 4a 3e bd 77 84 2e 3f
       -0.9144209 0.08175495 -0.046458215 0.68170875
000020 a5 c2 b4 bf 63 40 95 3e f4 88 78 be 34 4c 37 3f
       -1.4121901 0.29150686 -0.24270993 0.7160065
000030 af a6 9b bd 5b 57 25 bf e4 99 eb bd f8 e1 91 be
       -0.07600152 -0.6458642 -0.11503962 -0.28492713
000040 1c 47 cf 3c 2f f8 8d 3e ef 7b 3b bf 72 91 6c 3f
       0.025302462 0.27728412 -0.7323598 0.9240943
000050 34 7f b0 bf 3a ec 60 bf a5 de 98 be 4f 36 6e bf
       -1.3788819 -0.87860453 -0.29857364 -0.9305162
000060 72 52 a7 3e 15 f3 b8 be 65 92 f7 3e 28 9f d8 bf
       0.32680088 -0.36122957 0.48353878 -1.6923571
000070 dd 42 76 3e 42 dc 5d bf 95 45 2c 3c af c5 90 bf
       0.24048944 -0.8666421 0.0105146365 -1.1310328
000080 59 5c 66 bf 7f f8 17 3e 62 9c ab 3e 0f 05 c6 be
       -0.8998466 0.14840887 0.33517748 -0.38675734
000090 f1 b6 11 3f 8d b3 83 bf 83 48 a0 3e f7 ab 07 bf
       0.5691977 -1.028917 0.31305322 -0.5299677
0000a0 f9 a7 4b bf 18 15 29 3e 3d 1d 02 3f a7 d6 54 3d
       -0.7955318 0.16511953 0.50825864 0.05196252
0000b0 88 ec 18 bf a8 36 90 3f fd d2 c4 bd b8 d3 10 bf
       -0.5973592 1.126668 -0.09610555 -0.5657306
0000c0 8f f3 73 3f ab ae 83 be a8 1d 28 bf 4f ea 76 bf
       0.95293516 -0.257192 -0.6567025 -0.96451277
0000d0 43 27 d6 bf 9b 62 01 bf d3 26 96 3d 59 8f 94 bf
       -1.6730732 -0.50541085 0.07331624 -1.1606246

l3.bias f4 [7]
000000 1f f8 8c ba db e8 e2 3c f3 69 65 bd aa 05 2c 3e
       -0.0010755098 0.027698925 -0.056009244 0.16799036
000010 84 2e 42 be d4 c4 de 3c f1 92 26 3e
       -0.18963057 0.027193464 0.16266991
